_________________________________________________________________
Layer (type)                 Output Shape              Param #   
=================================================================
block1_conv1 (Conv2D)        (None, 16, 16, 64)        1792      
_________________________________________________________________
block1_pool (MaxPooling2D)   (None, 8, 8, 64)          0         
_________________________________________________________________
conv2d (Conv2D)              (None, 8, 8, 192)         110784    
_________________________________________________________________
block2_pool (MaxPooling2D)   (None, 4, 4, 192)         0         
_________________________________________________________________
conv2d_1 (Conv2D)            (None, 4, 4, 384)         663936    
_________________________________________________________________
conv2d_2 (Conv2D)            (None, 4, 4, 256)         884992    
_________________________________________________________________
conv2d_3 (Conv2D)            (None, 4, 4, 256)         590080    
_________________________________________________________________
block3_pool (MaxPooling2D)   (None, 2, 2, 256)         0         
_________________________________________________________________
flatten_1 (Flatten)          (None, 1024)              0         
_________________________________________________________________
dense (Dense)                (None, 4096)              4198400   
_________________________________________________________________
dense_1 (Dense)              (None, 4096)              16781312  
_________________________________________________________________
dense_2 (Dense)              (None, 10)                40970     
=================================================================
Total params: 23,272,266
Trainable params: 23,272,266
Non-trainable params: 0
_________________________________________________________________
